============================================================================================================================================
Layer (type (var_name))                  Input Shape          Output Shape         Param #              Kernel Shape         Mult-Adds
============================================================================================================================================
ChestNetS (ChestNetS)                    [1, 1, 64, 64]       [1, 14]              --                   --                   --
├─Sequential (features)                  [1, 1, 64, 64]       [1, 128, 8, 8]       --                   --                   --
│    └─Conv2d (0)                        [1, 1, 64, 64]       [1, 32, 64, 64]      320                  [3, 3]               1,310,720
│    └─BatchNorm2d (1)                   [1, 32, 64, 64]      [1, 32, 64, 64]      64                   --                   64
│    └─ReLU (2)                          [1, 32, 64, 64]      [1, 32, 64, 64]      --                   --                   --
│    └─MaxPool2d (3)                     [1, 32, 64, 64]      [1, 32, 32, 32]      --                   2                    --
│    └─Conv2d (4)                        [1, 32, 32, 32]      [1, 64, 32, 32]      18,496               [3, 3]               18,939,904
│    └─BatchNorm2d (5)                   [1, 64, 32, 32]      [1, 64, 32, 32]      128                  --                   128
│    └─ReLU (6)                          [1, 64, 32, 32]      [1, 64, 32, 32]      --                   --                   --
│    └─MaxPool2d (7)                     [1, 64, 32, 32]      [1, 64, 16, 16]      --                   2                    --
│    └─Conv2d (8)                        [1, 64, 16, 16]      [1, 128, 16, 16]     73,856               [3, 3]               18,907,136
│    └─BatchNorm2d (9)                   [1, 128, 16, 16]     [1, 128, 16, 16]     256                  --                   256
│    └─ReLU (10)                         [1, 128, 16, 16]     [1, 128, 16, 16]     --                   --                   --
│    └─MaxPool2d (11)                    [1, 128, 16, 16]     [1, 128, 8, 8]       --                   2                    --
├─Sequential (classifier)                [1, 8192]            [1, 14]              --                   --                   --
│    └─Dropout (0)                       [1, 8192]            [1, 8192]            --                   --                   --
│    └─Linear (1)                        [1, 8192]            [1, 512]             4,194,816            --                   4,194,816
│    └─ReLU (2)                          [1, 512]             [1, 512]             --                   --                   --
│    └─Dropout (3)                       [1, 512]             [1, 512]             --                   --                   --
│    └─Linear (4)                        [1, 512]             [1, 14]              7,182                --                   7,182
============================================================================================================================================
Total params: 4,295,118
Trainable params: 4,295,118
Non-trainable params: 0
Total mult-adds (Units.MEGABYTES): 43.36
============================================================================================================================================
…
